…
2024-11-21 05:45:33.133162: W tensorflow/core/common_runtime/gpu/gpu_device.cc:2256] Cannot dlopen some GPU libraries. Please make sure the missing libraries mentioned above are installed properly if you would like to use GPU. Follow the guide at https://www.tensorflow.org/install/gpu for how to download and setup the required libraries for your platform.
Skipping registering GPU devices...
INFO:root:Model summary:
Model: "model"
_________________________________________________________________
 Layer (type)                Output Shape              Param #   
=================================================================
 input (InputLayer)          [(None, 784)]             0         
                                                                 
 layer0 (Dense)              (None, 8)                 6280      
                                                                 
 layer1 (Dense)              (None, 8)                 72        
                                                                 
 layer2 (Dense)              (None, 8)                 72        
                                                                 
 layer3 (Dense)              (None, 8)                 72        
                                                                 
 layer4 (Dense)              (None, 8)                 72        
                                                                 
 layer5 (Dense)              (None, 8)                 72        
                                                                 
 layer6 (Dense)              (None, 8)                 72        
                                                                 
 layer7 (Dense)              (None, 8)                 72        
                                                                 
 output (Dense)              (None, 1)                 9         
                                                                 
=================================================================
Total params: 6793 (53.07 KB)
Trainable params: 6793 (53.07 KB)
Non-trainable params: 0 (0.00 Byte)
_________________________________________________________________
INFO:root:None
INFO:root:Signature and Sign recovery results will be saved to 
	 results/model_mnist784_8x8_1v2_42/layerID_1/nExp_15-Seed20_float32_original/df.md
…
